{
  "artifact": "/nix/store/x8lnd266sjig478x9b34bmlv8p0x4m61-tiny-stories-v1k-h64-l1-linalg.mlir",
  "candidate_count": 1,
  "selected_candidate": {
    "candidate_index": 0,
    "line_number": 412,
    "result_value": "%94",
    "lhs_value": "%90",
    "rhs_value": "%93",
    "out_value": "%31",
    "representation_level": "linalg",
    "shape_contract": {
      "lhs": "tensor<1x1x256xf32>",
      "rhs": "tensor<1x256x64xf32>",
      "out": "tensor<1x1x64xf32>"
    },
    "context": [
      {
        "line_number": 406,
        "text": "    %transposed_51 = linalg.transpose ins(%cst_4 : tensor<64x256xf32>) outs(%91 : tensor<256x64xf32>) permutation = [1, 0] "
      },
      {
        "line_number": 407,
        "text": "    %92 = tensor.empty() : tensor<1x256x64xf32>"
      },
      {
        "line_number": 408,
        "text": "    %93 = linalg.generic {indexing_maps = [#map8, #map1], iterator_types = [\"parallel\", \"parallel\", \"parallel\"]} ins(%transposed_51 : tensor<256x64xf32>) outs(%92 : tensor<1x256x64xf32>) {"
      },
      {
        "line_number": 409,
        "text": "    ^bb0(%in: f32, %out: f32):"
      },
      {
        "line_number": 410,
        "text": "      linalg.yield %in : f32"
      },
      {
        "line_number": 411,
        "text": "    } -> tensor<1x256x64xf32>"
      },
      {
        "line_number": 412,
        "text": "    %94 = linalg.batch_matmul ins(%90, %93 : tensor<1x1x256xf32>, tensor<1x256x64xf32>) outs(%31 : tensor<1x1x64xf32>) -> tensor<1x1x64xf32>"
      },
      {
        "line_number": 413,
        "text": "    %95 = linalg.generic {indexing_maps = [#map1, #map7, #map1], iterator_types = [\"parallel\", \"parallel\", \"parallel\"]} ins(%94, %cst_3 : tensor<1x1x64xf32>, tensor<64xf32>) outs(%0 : tensor<1x1x64xf32>) {"
      },
      {
        "line_number": 414,
        "text": "    ^bb0(%in: f32, %in_55: f32, %out: f32):"
      },
      {
        "line_number": 415,
        "text": "      %116 = arith.addf %in, %in_55 : f32"
      },
      {
        "line_number": 416,
        "text": "      linalg.yield %116 : f32"
      },
      {
        "line_number": 417,
        "text": "    } -> tensor<1x1x64xf32>"
      },
      {
        "line_number": 418,
        "text": "    %96 = linalg.generic {indexing_maps = [#map1, #map1, #map1], iterator_types = [\"parallel\", \"parallel\", \"parallel\"]} ins(%62, %95 : tensor<1x1x64xf32>, tensor<1x1x64xf32>) outs(%0 : tensor<1x1x64xf32>) {"
      }
    ]
  },
  "all_candidates": [
    {
      "candidate_index": 0,
      "line_number": 412,
      "result_value": "%94",
      "lhs_value": "%90",
      "rhs_value": "%93",
      "out_value": "%31",
      "representation_level": "linalg",
      "shape_contract": {
        "lhs": "tensor<1x1x256xf32>",
        "rhs": "tensor<1x256x64xf32>",
        "out": "tensor<1x1x64xf32>"
      },
      "context": [
        {
          "line_number": 406,
          "text": "    %transposed_51 = linalg.transpose ins(%cst_4 : tensor<64x256xf32>) outs(%91 : tensor<256x64xf32>) permutation = [1, 0] "
        },
        {
          "line_number": 407,
          "text": "    %92 = tensor.empty() : tensor<1x256x64xf32>"
        },
        {
          "line_number": 408,
          "text": "    %93 = linalg.generic {indexing_maps = [#map8, #map1], iterator_types = [\"parallel\", \"parallel\", \"parallel\"]} ins(%transposed_51 : tensor<256x64xf32>) outs(%92 : tensor<1x256x64xf32>) {"
        },
        {
          "line_number": 409,
          "text": "    ^bb0(%in: f32, %out: f32):"
        },
        {
          "line_number": 410,
          "text": "      linalg.yield %in : f32"
        },
        {
          "line_number": 411,
          "text": "    } -> tensor<1x256x64xf32>"
        },
        {
          "line_number": 412,
          "text": "    %94 = linalg.batch_matmul ins(%90, %93 : tensor<1x1x256xf32>, tensor<1x256x64xf32>) outs(%31 : tensor<1x1x64xf32>) -> tensor<1x1x64xf32>"
        },
        {
          "line_number": 413,
          "text": "    %95 = linalg.generic {indexing_maps = [#map1, #map7, #map1], iterator_types = [\"parallel\", \"parallel\", \"parallel\"]} ins(%94, %cst_3 : tensor<1x1x64xf32>, tensor<64xf32>) outs(%0 : tensor<1x1x64xf32>) {"
        },
        {
          "line_number": 414,
          "text": "    ^bb0(%in: f32, %in_55: f32, %out: f32):"
        },
        {
          "line_number": 415,
          "text": "      %116 = arith.addf %in, %in_55 : f32"
        },
        {
          "line_number": 416,
          "text": "      linalg.yield %116 : f32"
        },
        {
          "line_number": 417,
          "text": "    } -> tensor<1x1x64xf32>"
        },
        {
          "line_number": 418,
          "text": "    %96 = linalg.generic {indexing_maps = [#map1, #map1, #map1], iterator_types = [\"parallel\", \"parallel\", \"parallel\"]} ins(%62, %95 : tensor<1x1x64xf32>, tensor<1x1x64xf32>) outs(%0 : tensor<1x1x64xf32>) {"
        }
      ]
    }
  ]
}
